utilities/lstm_class_multi.pth (torch, 50049 bytes, 6 tensors)

lstm.weight_ih_l0 f4 [200, 6]
0.020524409 0.31663358 -0.027375206 -0.24442472 0.5050621 0.05911073 0.3042693 -0.031228136
-0.053728975 -0.24681513 0.2869081 0.18540668 0.037554275 -0.015578798 -0.23544933 -0.31222963
0.1691798 0.098206095 0.9129762 0.5109357 -0.052891057 -0.5057009 0.4798292 1.4975505
-0.1488854 0.096644334 0.37257722 -0.47298196 0.32890472 -0.398383 -0.5000275 0.20903608
-0.17633022 -0.07124912 -0.15025729 -1.399893 -0.058835827 0.00060543884 0.18206106 -0.28373668
0.44158867 -0.15564764 0.9560059 0.9575847 -1.0810449 0.010597957 0.08650987 -0.38077518
-0.010580958 0.11692556 0.32064283 -0.28100795 0.26196998 0.060525537 -0.566714 0.031921774
-0.27367166 0.09280901 0.40664098 0.23679906 0.09750671 0.9200925 -0.31205592 0.11251516
-0.30985647 -0.22209007 0.025407432 0.0321467 0.45201397 0.16137455 -0.13407859 0.46136704
0.041470308 0.4725219 -1.0993845 -0.1648682 0.10610026 -0.33139715 -0.7306626 -0.5352205
0.11012813 0.20732553 -0.3184517 0.2522758 -0.07238457 0.31649828 0.4693666 -0.27970546
-0.18871489 0.17211454 -0.026560646 0.3892653 0.0024349308 -0.5189263 0.42305696 -0.21048947
0.14368527 -0.028223526 0.18023781 -0.18988559 0.25402772 0.21831335 0.4513298 0.000803874
0.3788569 -0.12845488 0.80640024 0.18823701 0.80633205 0.10596755 0.37895662 -0.18330613
0.53944373 0.14290532 -1.0356725 0.38399276 -1.168557 0.23557019 0.070152044 -0.5259095
-1.27105 0.107288145 -0.15998328 0.200655 -0.12660412 -1.1781504 -0.57376224 0.20340978
-0.23318796 0.046821017 0.041387487 -1.031429 -0.120283104 -0.21859615 0.002339985 -0.21984586
0.39829993 -0.1570111 0.3016019 -0.16451946 -0.3213928 -0.23031874 -0.10317848 -1.9339767
-0.6889331 0.6806742 0.042748425 -0.23345003 -0.57485586 0.2996322 0.037276722 0.1867357
0.17454958 -0.2881621 0.15770034 0.12796873 0.23752578 0.03513127 0.52415645 -0.3990788
0.50084776 -0.04263188 0.4277961 0.47678447 0.118300214 0.020605892 0.38673398 1.1141591
0.15778154 0.02987339 0.3629775 0.027697947 -0.5749001 0.16152626 -0.8889639 0.5260291
-0.32009944 -0.23922949 -0.015064906 -0.7252549 -0.009802553 -0.527276 0.8599328 0.030929646
-0.28887656 0.9266054 -0.08904179 0.21822596 0.39386287 -0.30948386 0.2208012 -0.10276923
0.11558089 0.24098462 -0.07880662 -0.6427266 0.25474852 1.033909 0.053684033 -0.20285627
0.41201 -0.11409395 0.009968057 -0.16636294 0.17963888 0.35793716 0.2520729 -0.21824577
0.27281278 0.16873959 0.63244045 -0.7805772 -0.1044689 0.26597133 0.53106296 -1.2306376
0.127183 -0.096816376 0.34589067 -0.30024153 -0.05814545 -0.10547527 -0.3709697 0.38443774
0.1666677 -0.20938985 0.19618095 -0.12831856 -0.43480235 -0.47020948 0.064359926 0.020185716
-0.60308427 -2.4114997 -0.47730106 -0.021094372 -0.15241161 0.077296 0.012684324 0.029184919
-0.23505372 -0.20680873 0.0108751785 -0.09492977 -0.0069672875 1.016817 0.3112624 -0.16865914
0.65187407 -0.45936775 0.4331072 0.18302007 -0.054175407 -0.13620754 0.66147876 -0.581948
00000000: ce22 a83c cc1d a23e f841 e0bc 794a 7abe
00000010: c04b 013f 181e 723d 30c9 9b3e 26d2 ffbc
00000020: ea12 5cbd 1bbd 7cbe 9ee5 923e 40db 3d3e
00000030: 83d2 193d 373e 7fbc a119 71be 90dc 9fbe
00000040: 783d 2d3e 4720 c93d cfb8 693f afcc 023f
00000050: 4ba4 58bd 9d75 01bf 2cac f53e bcaf bf3f
00000060: 6a75 18be 77ed c53d 71c2 be3e b12a f2be
00000070: 3366 a83e dbf8 cbbe cd01 00bf 8e0d 563e
00000080: e98f 34be 0feb 91bd 0cdd 19be b22f b3bf
00000090: d6fd 70bd 50b6 1e3a 376e 3a3e ef45 91be
000000a0: e917 e23e 1862 1fbe cdbc 743f 4524 753f
000000b0: ae5f 8abf 0ea3 2d3c 162c b13d f7f4 c2be
000000c0: c15b 2dbc ab76 ef3d 4c2b a43e 46e0 8fbe
000000d0: ee20 863e a0e9 773d 2b14 11bf 68c0 023d
000000e0: b11e 8cbe a612 be3d 3f33 d03e 747b 723e
000000f0: 99b1 c73d 2f8b 6b3f cbc5 9fbe 596e e63d
00000100: 82a5 9ebe 946b 63be 3f23 d03c 42ac 033d
00000110: 606e e73e 5f3f 253e e64b 09be 4d38 ec3e
00000120: c5dc 293d 64ee f13e a2b8 8cbf 36d3 28be
00000130: 184b d93d e3ac a9be b40c 3bbf 3604 09bf
00000140: db8a e13d 254d 543e 1a0c a3be 4b2a 813e
00000150: 5d3e 94bd 100c a23e d250 f03e 8e35 8fbe
00000160: 7a3e 41be cb3e 303e b695 d9bc c84d c73e
00000170: 5c93 1f3b 5bd8 04bf ec9a d83e 8d8a 57be
00000180: 3b22 133e 0635 e7bc 4390 383e 5e71 42be
00000190: ec0f 823e 898d 5f3e b314 e73e 12bb 523a
000001a0: 88f9 c13e ad89 03be 3f70 4e3f 34c1 403e
000001b0: c76b 4e3f 8405 d93d 9a06 c23e 9ab4 3bbe
000001c0: fc18 0a3f c655 123e eb90 84bf b39a c43e
000001d0: 4793 95bf 5039 713e e0ab 8f3d 01a2 06bf
000001e0: c4b1 a2bf e3b9 db3d a8d2 23be 8178 4d3e
000001f0: 83a4 01be a2cd 96bf 15e2 12bf a74a 503e
00000200: d3c8 6ebe 65c7 3f3d ed85 293d de05 84bf
00000210: fd56 f6bd abd7 5fbe 6f5a 193b 461f 61be
00000220: f8ed cb3e 85c7 20be 906b 9a3e ca77 28be
00000230: 998d a4be add8 6bbe 3d4f d3bd 8c8c f7bf
00000240: eb5d 30bf aa40 2e3f f918 2f3d 860d 6fbe
00000250: c129 13bf 6469 993e 7aaf 183d a537 3f3e
00000260: 20bd 323e fc89 93be 337c 213e 3c0a 033e
00000270: f539 733e cee5 0f3d 1e2f 063f 0e54 ccbe
00000280: 8f37 003f c49e 2ebd 1708 db3e 181d f43e
00000290: 6247 f23d b0cd a83c ff01 c63e c49c 8e3f
000002a0: 7c91 213e 0ab9 f43c 30d8 b93e cee6 e23c
000002b0: a72c 13bf 2467 253e 2393 63bf d8a9 063f
000002c0: 13e4 a3be 93f8 74be ccd2 76bc 4eaa 39bf
000002d0: e39a 20bc 8ffb 06bf 8e24 5c3f 2b60 fd3c
000002e0: a1e7 93be 0336 6d3f 8b5b b6bd a076 5f3e
000002f0: 65a8 c93e ab74 9ebe b619 623e ad78 d2bd
00000300: acb5 ec3d acc4 763e 5d65 a1bd bb89 24bf
00000310: 666e 823e 2157 843f cae3 5b3d 8eb9 4fbe
00000320: faf2 d23e 17aa e9bd 1051 233c 0c5b 2abe
00000330: 41f3 373e 8a43 b73e b30f 813e d27b 5fbe
00000340: 1eae 8b3e 12ca 2c3e 9ee7 213f e8d3 47bf
00000350: caf3 d5bd 652d 883e bef3 073f 8885 9dbf
00000360: 433c 023e aa47 c6bd 9518 b13e 42b9 99be
00000370: ec29 6ebd 6b03 d8bd beef bdbe 06d5 c43e
00000380: f0aa 2a3e 4b6a 56be a9e3 483e f165 03be
00000390: 6a9e debe 4cbf f0be 23cf 833d 845c a53c
000003a0: bb63 1abf 0356 1ac0 ce60 f4be 1bce acbc
000003b0: ca11 1cbe 5e4d 9e3d e9d1 4f3c 3615 ef3c
000003c0: ecb1 70be abc5 53be ce2d 323c 8a6a c2bd
000003d0: d84d e4bb 0f27 823f c95d 9f3e fbb4 2cbe
000003e0: 38e1 263f 4032 ebbe 3ac0 dd3e 9d69 3b3e
000003f0: 08e7 5dbd fd79 0bbe ac56 293f 8bfa 14bf

lstm.weight_hh_l0 f4 [200, 50]
0.21966566 -0.12047691 0.30936384 0.012493364 0.2736555 0.3429433 0.2752441 -0.065692335
0.34133443 -0.15171246 -0.096311934 -0.20757586 -0.17931989 -0.04647805 0.1409109 -0.22902381
0.3466293 -0.21192226 -0.082515806 -0.41639113 -0.25778437 0.15870064 -0.19474271 0.47695044
0.1687071 0.39238018 -0.1342064 -0.057949666 0.019228555 -0.17454004 -0.21913846 -0.36593673
-0.08762485 0.21890552 -0.008651485 0.32185796 0.30220142 -0.21393487 0.2920013 0.4414618
-0.095274195 -0.25261733 -0.29306102 -0.14795448 0.130203 -0.12425216 0.20197375 -0.35818055
0.21503635 0.105843104 0.616666 -0.08924704 0.27504468 -0.39865553 0.15156947 0.6100775
0.18035394 0.4121764 0.6254213 -0.06922399 0.006109573 0.24416186 -0.29764003 0.06380944
0.024566466 -0.49810043 0.46944797 -0.17664143 -0.35782272 -0.1979806 -0.43831113 -0.09664303
0.15608329 0.49943554 0.22832838 0.25558537 -0.44203207 0.094686545 0.009861986 -0.5875783
0.0054838113 -0.37374887 0.115844965 0.04834676 0.17247267 0.17887044 0.71692365 -0.13198942
0.20832086 0.2535372 0.005732643 -0.41849118 -0.27428627 0.034439314 0.36199278 0.22501118
0.41076705 -0.09428901 0.30500567 -0.19421728 -0.0028691916 -0.28861383 -0.027069112 0.19412501
-0.065201394 0.029601563 0.08583198 -0.5211687 -0.011884226 0.15289846 0.68400574 -0.05685162
0.069487125 0.26149794 0.14237009 -0.05735848 -0.17772456 0.045421846 0.062413353 -0.2925498
0.08310851 0.08653778 -0.0065168473 0.2870212 -0.07054728 -0.056238156 0.0039795674 0.014696194
0.6398061 -0.36183673 -0.118026815 -0.1167771 -0.08591854 0.34684172 0.2861684 -0.117455184
-0.1814114 -0.24248578 -0.026288219 0.08908407 -0.31227636 0.21031067 0.23915306 -0.5069511
0.21905188 0.09311898 -0.06380291 -0.054250136 0.038413875 0.16451253 0.013493751 -0.07166053
0.14691369 0.09245977 -0.23303115 0.077912584 -0.37372732 0.30969402 -0.18522681 0.051716745
-0.0027318522 0.059113406 -0.07046431 -0.105066605 0.13850518 0.15642118 0.016490048 -0.4376671
0.10212651 0.26954547 -0.01668503 -0.08649222 -0.07732939 -0.072234824 0.16430405 -0.18064371
0.29289854 0.03059488 0.26594663 -0.2029284 0.0029491433 0.102060586 0.3613309 0.06692901
0.036323734 0.14240284 0.072189935 -0.02825663 0.05716038 0.08827948 0.17108117 0.029906271
-0.25881588 -0.13172247 0.06900061 -0.23108926 0.05116722 -0.28593493 -0.26406386 -0.021046743
0.24940415 -0.19282602 0.18544792 -0.22404735 0.18908796 0.21149306 0.2281727 -0.15013197
0.4190602 -0.22282165 0.2837726 -0.11811178 -0.3157878 0.0029257732 0.020305894 -0.41333103
0.26879632 -0.15563214 -0.26625764 -0.39839354 -0.27064484 -0.23765358 -0.33866337 0.09284225
0.21900405 0.2367482 -0.3093266 0.040524095 -0.08211503 -0.26081556 -0.0452862 -0.32708636
-0.22229844 -0.02125265 0.3008635 0.3286403 0.46085143 -0.1553156 0.30224735 0.19343726
-0.14358135 -0.3245919 -0.36953977 -0.021038042 0.2687971 -0.046991248 0.36778498 -0.2711871
0.2831913 0.12741536 0.16455874 -0.030117782 -0.076238476 -0.1897371 -0.08091517 0.20559897
00000000: 09f0 603e 99bc f6bd f064 9e3e f7b0 4c3c
00000010: 931c 8c3e 4496 af3e cbec 8c3e b489 86bd
00000020: 63c3 ae3e 835a 1bbe 313f c5bd c48e 54be
00000030: a29f 37be c55f 3ebd f24a 103e 3885 6abe
00000040: 6579 b13e 2602 59be 0cfe a8bd 3831 d5be
00000050: 50fc 83be 6c82 223e a26a 47be d932 f43e
00000060: 8ec1 2c3e 0ee6 c83e 676d 09be a15c 6dbd
00000070: 3485 9d3c a0ba 32be d565 60be 0f5c bbbe
00000080: a874 b3bd c528 603e f5be 0dbc 91ca a43e
00000090: 25ba 9a3e be11 5bbe 3281 953e 4807 e23e
000000a0: 1e1f c3bd 0f57 81be 180c 96be 6181 17be
000000b0: ef53 053e eb77 febd 35d2 4e3e 7163 b7be
000000c0: 7d32 5c3e 45c4 d83d d3dd 1d3f 27c7 b6bd
000000d0: a8d2 8c3e 941c ccbe 0735 1b3e 0a2e 1c3f
000000e0: b4ae 383e c908 d33e 9c1b 203f 4fc5 8dbd
000000f0: d032 c83b 9105 7a3e 4664 98be 86ae 823d
00000100: 9d3f c93c 0507 ffbe 7c5b f03e 7ee1 34be
00000110: 8a34 b7be 6dbb 4abe 516a e0be c8ec c5bd
00000120: 4cd4 1f3e 04b6 ff3e eace 693e 16dc 823e
00000130: 0752 e2be 05eb c13d 2b94 213c 886b 16bf
00000140: 8bb1 b33b 035c bfbe 2040 ed3d 4107 463d
00000150: ad9c 303e d029 373e 4f88 373f 3c28 07be
00000160: 1052 553e a1cf 813e e5d8 bb3b 7a44 d6be
00000170: 406f 8cbe 3d10 0d3d 1e57 b93e 5569 663e
00000180: 0f50 d23e 991a c1bd b429 9c3e e5e0 46be
00000190: 0c09 3cbb 31c5 93be 0bc0 ddbc b5c8 463e
000001a0: 4f88 85bd fa7e f23c adc8 af3d 506b 05bf
000001b0: 0fb6 42bc 6a91 1c3e 001b 2f3f 3fdd 68bd
000001c0: 444f 8e3d 0fe3 853e 77c9 113e baf0 6abd
000001d0: 6dfd 35be 420c 3a3d 25a5 7f3d 16c9 95be
000001e0: cb34 aa3d b83a b13d 478b d5bb 71f4 923e
000001f0: 187b 90bd fb59 66bd 0867 823b 4ec8 703c
00000200: 55ca 233f aa42 b9be 0bb8 f1bd d528 efbd
00000210: 0ff6 afbd 3d95 b13e aa84 923e 588c f0bd
00000220: e9c3 39be 314e 78be 645a d7bc b571 b63d
00000230: b0e2 9fbe ae5b 573e 8ae4 743e 8cc7 01bf
00000240: 234f 603e 2ab5 be3d 1aab 82bd 6435 5ebd
00000250: de57 1d3d f975 283e e514 5d3c c2c2 92bd
00000260: 8b70 163e 8c5b bd3d b89f 6ebe a290 9f3d
00000270: 3059 bfbe 3790 9e3e 19ac 3dbe f0d4 533d
00000280: e008 33bb e620 723d 984f 90bd 292d d7bd
00000290: 4dd4 0d3e e02c 203e 2316 873c e715 e0be
000002a0: b427 d13d dd01 8a3e 0baf 88bc d522 b1bd
000002b0: df5e 9ebd daef 93bd 523f 283e aafa 38be
000002c0: ccf6 953e 1da2 fa3c 282a 883e 76cc 4fbe
000002d0: 6a46 413b 2405 d13d 5d00 b93e 1412 893d
000002e0: 32c8 143d 0dd2 113e 51d8 933d 737a e7bc
000002f0: 0121 6a3d dfcb b43d e72f 2f3e fffd f43c
00000300: 8483 84be 41e2 06be 3150 8d3d aaa2 6cbe
00000310: b894 513d 1066 92be 6133 87be 386a acbc
00000320: cd63 7f3e 2f74 45be 0fe6 3d3e ab6c 65be
00000330: 46a0 413e a391 583e 1ba6 693e 32bc 19be
00000340: 0f8f d63e 5c2b 64be a44a 913e 97e4 f1bd
00000350: f0ae a1be 54be 3f3b 8c58 a63c 20a0 d3be
00000360: ac9f 893e 085e 1fbe ec52 88be 3dfa cbbe
00000370: f691 8abe 765b 73be 4965 adbe 1424 be3d
00000380: 9942 603e 1f6e 723e 0e60 9ebe 98fc 253d
00000390: ed2b a8bd 9e89 85be 067e 39bd dd77 a7be
000003a0: 34a2 63be 0a1a aebc c80a 9a3e 8b43 a83e
000003b0: b8f4 eb3e 0d0b 1fbe 2ac0 9a3e 6b14 463e
000003c0: fd06 13be e930 a6be 5134 bdbe f957 acbc
000003d0: c69f 893e e579 40bd 504e bc3e 09d9 8abe
000003e0: 73fe 903e 2c79 023e 1682 283e 91b9 f6bc
000003f0: eb22 9cbd 714a 42be dab6 a5bd 8988 523e

lstm.bias_ih_l0 f4 [200]
0.30814034 0.20890099 0.16379926 0.07505018 0.50805557 -0.02891777 0.29425117 0.028827794
0.29004177 -0.00020767926 0.113406494 -0.1053866 0.10540627 0.2734712 0.10408617 0.22686863
0.21782288 0.2551315 0.0095028775 -0.12337212 0.045440897 0.112458035 -0.22171772 0.07130741
0.1880903 0.057047036 0.43715575 -0.005516526 0.010280578 0.00758079 0.18096413 0.5112259
0.34548977 -0.051480494 0.32009003 0.1333685 0.069240496 0.37336582 0.09514675 0.1707918
0.13096009 0.31673202 0.5778518 0.2603903 -0.027891899 0.3017219 0.27503678 0.072673224
0.1930004 0.24165303 0.14536114 0.0005407216 -0.025852697 -0.023308197 0.28513864 0.072840765
0.44916674 -0.0051512993 0.099566594 0.24390143 0.14707541 0.000506232 0.092517845 0.07952393
0.1514689 0.06312877 0.29139006 0.25794688 0.34599435 0.16530046 0.060909797 -0.068839684
0.26843306 -0.15078555 0.037199832 0.13739581 0.48554412 0.015658312 0.02602073 0.14565712
0.20587876 -0.048804007 -0.030662829 0.22942266 0.15455431 -0.0165704 0.22961949 0.061126057
-0.11867824 0.08396917 0.18709588 0.29211876 0.17024155 0.13994822 0.08185693 0.022543373
0.031445965 0.40208626 0.10263706 0.06339801 0.29041746 -0.18414097 -0.06992632 0.02214446
0.5840272 0.31250763 0.32523355 -0.2541006 0.1364769 -0.066106595 0.043319207 -0.13627176
-0.06951235 -0.0874014 0.022568645 -0.31351575 0.20570211 -0.08716138 -0.20886903 -0.21232615
-0.027780814 -0.05910309 -0.1837653 0.25208437 0.10482205 0.17169766 -0.37971342 -0.10096942
0.12096339 -0.37835717 -0.06574516 -0.152345 0.03978246 0.08544093 0.13705203 0.196915
0.1997834 -0.18550597 0.22797674 0.12894915 -0.24067034 -0.14637145 -0.22157218 -0.16269563
0.016649298 -0.10359507 0.21473856 -0.25977853 0.3609784 0.3161653 0.04570146 0.15432921
-0.14862357 0.0077999006 -0.08377837 -0.004201378 -0.12511395 0.2187419 -0.2331056 0.06178952
-0.0640382 -0.1214897 -0.07758979 0.0436298 -0.043900218 0.10830038 -0.058102414 0.039578874
-0.08137692 0.11858949 0.12123129 0.40765795 0.14502148 0.12776656 0.09191999 -0.1613028
0.057300895 0.020462204 -0.06443694 0.052072786 -0.06726161 0.0133665465 0.15133664 0.05988416
-0.118727595 0.034043655 -0.04489539 0.48878336 0.17048025 0.05684196 0.13882573 0.013571956
0.086567186 0.30240843 0.0270537 0.35032567 -0.057460465 -0.026261874 0.08809611 0.22122999
00000000: 92c4 9d3e 24ea 553e feba 273e e9b3 993d
00000010: ee0f 023f f6e4 ecbc 17a8 963e 4428 ec3c
00000020: 5b80 943e 7ac4 59b9 aa41 e83d eed4 d7bd
00000030: 3edf d73d 6b04 8c3e 212b d53d 4050 683e
00000040: f60c 5f3e 99a0 823e f5b1 1b3c 86aa fcbd
00000050: 3c20 3a3d 6650 e63d f809 63be 9f09 923d
00000060: be9a 403e 27aa 693d e1d2 df3e f9c3 b4bb
00000070: df6f 283c 4768 f83b a94e 393e b3df 023f
00000080: 09e4 b03e 36dd 52bd d7e2 a33e c191 083e
00000090: f6cd 8d3d ce29 bf3e 4ddc c23d 0ce4 2e3e
000000a0: 671a 063e b32a a23e 18ee 133f e151 853e
000000b0: 8d7d e4bc 4b7b 9a3e 9fd1 8c3e b3d5 943d
000000c0: e6a1 453e e473 773e 8dd9 143e 36bf 0d3a
000000d0: 09c9 d3bc d5f0 bebc b1fd 913e 8a2d 953d
000000e0: 2ff9 e53e 3bcc a8bb 92e9 cb3d 4cc1 793e
000000f0: f09a 163e a8b4 043a ff79 bd3d 71dd a23d
00000100: aa1a 1b3e a849 813d 1431 953e 9d11 843e
00000110: 2c26 b13e 8644 293e 8d7c 793d d2fb 8cbd
00000120: 0f70 893e 8767 1abe da5e 183d 7db1 0c3e
00000130: 3d99 f83e dc45 803c 6d29 d53c 2427 153e
00000140: e2d1 523e b6e6 47bd 9d30 fbbc c6ed 6a3e
00000150: 7c43 1e3e a6be 87bc 5f21 6b3e 515f 7a3d
00000160: 940d f3bd 07f8 ab3d 1096 3f3e 9790 953e
00000170: cd53 2e3e 964e 0f3e 9ba4 a73d e1ac b83c
00000180: 7ccd 003d 40de cd3e 6133 d23d d1d6 813d
00000190: 99b1 943e 738f 3cbe 8835 8fbd 4c68 b53c
000001a0: ce82 153f 0001 a03e 0385 a63e 7919 82be
000001b0: 9ac0 0b3e e562 87bd 7b6f 313d d38a 0bbe
000001c0: 7e5c 8ebd 81ff b2bd e1e1 b83c 2385 a0be
000001d0: 93a3 523e aa81 b2bd c3e1 55be 076c 59be
000001e0: 9794 e3bc 1516 72bd f92c 3cbe 3411 813e
000001f0: f1ac d63d 83d1 2f3e cc69 c2be 0ec9 cebd
00000200: a7bb f73d 08b8 c1be 66a5 86bd 5400 1cbe
00000210: eff2 223d a8fb ae3d 5e57 0c3e 16a4 493e
00000220: 0594 4c3e 47f5 3dbe bc72 693e 3f0b 043e
00000230: 4972 76be 66e2 15be d1e3 62be af99 26be
00000240: 1c64 883c a729 d4bd 6de4 5b3e b101 85be
00000250: 29d2 b83e 6be0 a13e 7431 3b3d 7a08 1e3e
00000260: c730 18be 4f96 ff3b fe93 abbd b7ab 89bb
00000270: df1d 00be e0fd 5f3e 3cb3 6ebe 0217 7d3d
00000280: 7626 83bd 98cf f8bd 65e7 9ebd 29b5 323d
00000290: b7d0 33bd 97cc dd3d ccfc 6dbd 751d 223d
000002a0: f1a8 a6bd 0cdf f23d 1c48 f83d 8bb8 d03e
000002b0: 8380 143e 3dd5 023e 8c40 bc3d 902c 25be
000002c0: 58b4 6a3d 5aa0 a73c 84f7 83bd 464a 553d
000002d0: 74c0 89bd 5cff 5a3c fef7 1a3e 1849 753d
000002e0: 7427 f3bd 5c71 0b3d 3ae4 37bd d041 fa3e
000002f0: 6092 2e3e 1dd3 683d 5528 0e3e e95c 5e3c
00000300: 234a b13d 47d5 9a3e b99f dd3c e35d b33e
00000310: aa5b 6bbd 2423 d7bc bc6b b43d 1d8a 623e

lstm.bias_hh_l0 f4 [200]
0.2330894 0.3829627 -0.09521863 -0.022307966 0.36362052 -0.14406018 0.23448943 0.01594061
0.24701208 -0.1793528 0.08798936 0.06453644 0.0592884 0.30228385 0.17580241 0.13106544
0.33138624 0.18065669 0.029713543 -0.051093653 -0.077731796 0.32656837 -0.0713999 0.09606137
0.28446358 0.045549523 0.53747517 0.019596443 -0.0641605 -0.04067024 0.36882284 0.5568143
0.23125526 0.108051725 0.08167644 -0.06915433 0.05588343 0.37928182 0.15746716 0.10857723
0.021184066 0.2505228 0.48025677 0.25798166 0.084070995 0.3966485 0.18912134 0.060319647
0.00024389669 0.23146188 0.13238046 0.044485018 -0.119921096 0.03733466 0.36673746 -0.001494998
0.4717202 0.00046894382 0.32534295 0.033688862 0.1091559 0.16607916 -0.014285924 0.19569816
0.06781299 0.102848515 0.46586013 0.0648738 0.24168363 -0.08015334 -0.0858501 -0.0507508
0.11395755 -0.1532742 -0.05757251 0.18015336 0.3976481 -0.071519665 0.054899294 0.14685789
0.21498066 -0.057871044 0.08516481 -0.005419094 0.14022508 0.09598967 0.24851532 0.1611079
-0.00077142817 -0.0007098149 0.07247489 0.22303931 0.1886604 0.19344322 -0.12792708 0.15546238
-0.016055956 0.31912345 0.013065137 0.09094564 0.43175766 -0.20621525 0.12136005 -0.027409643
0.5688958 0.18503462 0.32245335 -0.0985241 0.23516083 -0.116950266 -0.0004763825 -0.27114636
-0.22787182 -0.026304405 0.22777036 -0.10928886 0.38138306 -0.13969947 -0.0708059 -0.15492119
-0.22460803 0.15674318 -0.13693185 0.26190853 0.086197056 0.13997747 -0.56667084 -0.2651683
0.11454678 -0.38712406 -0.053416412 -0.23837577 -0.09205523 -0.06404456 0.114860676 0.18187115
0.2864928 -0.18220045 0.14952412 0.25186238 -0.062771 -0.2067061 -0.0050496324 -0.037681397
0.24555606 -0.19330114 0.19114427 -0.17751297 0.2792779 0.11715874 -0.13721912 -0.058815967
-0.16270022 0.14689103 -0.24983294 0.11872793 -0.13946246 0.19628277 -0.16476607 0.007679878
0.16752289 0.0064693657 -0.06939568 0.04617046 0.15646432 -0.08263581 -0.20450324 0.03234551
-0.12703253 0.09885621 -0.09090213 0.30304834 -0.057231057 0.00795963 -0.047616743 0.037626803
0.028739113 -0.021742333 -0.014473155 0.13645253 0.11621527 0.16272263 0.13894987 0.011287491
-0.24093919 0.04174651 -0.21519418 0.54484105 0.2502351 -0.058406387 0.18684487 -0.15362455
0.105708964 0.23165655 0.10722274 0.13168013 -0.0051503843 0.2106429 -0.06845276 0.22650255
00000000: fdae 6e3e b013 c43e fc01 c3bd 32bf b6bc
00000010: 782c ba3e 8384 13be ff1d 703e e295 823c
00000020: bcf0 7c3e 43a8 37be c433 b43d ae2b 843d
00000030: 65d8 723d f3c4 9a3e 8c05 343e 0536 063e
00000040: 75ab a93e 11fe 383e d169 f33c 9447 51bd
00000050: d931 9fbd f833 a73e 1c3a 92bd d3bb c43d
00000060: 36a5 913e 2392 3a3d f997 093f b888 a03c
00000070: 9566 83bd d695 26bd 59d6 bc3e 628b 0e3f
00000080: 2ece 6c3e 394a dd3d fa45 a73d c9a0 8dbd
00000090: 06e6 643d 3a31 c23e 123f 213e bd5d de3d
000000a0: 358a ad3c 8644 803e 37e4 f53e 2c16 843e
000000b0: 6a2d ac3d 8315 cb3e 06a9 413e bc11 773d
000000c0: 85be 7f39 5804 6d3e be8e 073e ec35 363d
000000d0: 3199 f5bd 3aec 183d 03c5 bb3e cff3 c3ba
000000e0: 4f85 f13e 93dc f539 5a93 a63e 55fd 093d
000000f0: 218d df3d a810 2a3e 820f 6abc 1965 483e
00000100: 89e1 8a3d 3ea2 d23d 3885 ee3e 8edc 843d
00000110: ea7b 773e 6f27 a4bd 2dd2 afbd 12e0 4fbd
00000120: 9362 e93d e9f3 1cbe 27d1 6bbd 1f7a 383e
00000130: 8898 cb3e e778 92bd 15de 603d ea61 163e
00000140: e423 5c3e 300a 6dbd e36a ae3d a892 b1bb
00000150: 2a97 0f3e 3b96 c43d cd7a 7e3e 78f9 243e
00000160: ab39 4aba df12 3aba b76d 943d 6b64 643e
00000170: 3130 413e fb15 463e 51ff 02be 8831 1f3e
00000180: c887 83bc 2664 a33e 280f 563c b541 ba3d
00000190: 570f dd3e 172a 53be 9e8b f83d 308a e0bc
000001a0: 28a3 113f b779 3d3e 9b18 a53e 01c7 c9bd
000001b0: 00ce 703e 9f83 efbd fac2 f9b9 b2d3 8abe
000001c0: 3b57 69be 567c d7bc a23c 693e d6d2 dfbd
000001d0: a444 c33e 610d 0fbe af02 91bd a9a3 1ebe
000001e0: a6ff 65be 4981 203e dd37 0cbe e018 863e
000001f0: 1588 b03d 4156 0f3e 5711 11bf 24c4 87be
00000200: 8197 ea3d 2035 c6be 2bcb 5abd c718 74be
00000210: 7487 bcbd cb29 83bd 133c eb3d 6e3c 3a3e
00000220: 2faf 923e c192 3abe da1c 193e 1bf4 803e
00000230: 158e 80bd c4aa 53be 6377 a5bb cf57 1abd
00000240: 0c73 7b3e bcf0 45be 53bb 433e f6c5 35be
00000250: 83fd 8e3e ecf0 ef3d 2b83 0cbe 03e9 70bd
00000260: e39a 26be 9a6a 163e 35d4 7fbe a127 f33d
00000270: 3fcf 0ebe 5afe 483e 70b8 28be 7ca7 fb3b
00000280: 1f8b 2b3e f9fc d33b 531f 8ebd 3c1d 3d3d
00000290: 2f38 203e f73c a9bd 4c69 51be ba7c 043d
000002a0: d114 02be 2075 ca3d e52a babd 2729 9b3e
000002b0: 1d6b 6abd 1c69 023c c609 43bd 901e 1a3d
000002c0: 4a6e eb3c fa1c b2bc d020 6dbc 36ba 0b3e
000002d0: 4502 ee3d c3a0 263e e048 0e3e 2bef 383c
000002e0: c3b8 76be 63fe 2a3d dd5b 5cbe b47a 0b3f
000002f0: d11e 803e 893b 6fbd 4354 3f3e c14f 1dbe
00000300: f17d d83d 6037 6d3e 9997 db3d 28d7 063e
00000310: 8ec4 a8bb c6b2 573e f630 8cbd 49f0 673e

fc.weight f4 [3, 50]
0.31348658 -0.23011674 0.16245992 0.02176041 0.16050133 0.3152497 -0.03412437 -0.17700695
0.18949275 -0.40030503 0.4242678 -0.45667598 -0.02765153 -0.7788243 0.23913379 -0.105345726
0.44277975 -0.49946818 -0.35729378 -0.4505702 -0.51936424 0.87373 -0.13385403 0.19736327
-0.081011586 0.65092945 -0.6432985 -0.36412972 -0.08203435 -0.38090444 -0.40609893 -0.36305287
-0.22324677 0.28903925 0.1936971 0.594916 0.16661794 -0.44829255 0.98927325 0.7067389
-0.6004696 -0.37374792 -0.38560876 -0.80596894 0.51249623 -0.40104562 0.18233888 -0.3998479
0.5439925 0.484471 0.07002702 -0.2541216 0.03567166 -0.8825556 -0.35839424 -0.19677316
-0.15141824 0.7448732 -0.3085221 -0.5812324 -1.0366893 0.72393155 -0.1633233 0.90504813
-1.4475938 0.5135767 0.11222367 -0.009502033 0.38298345 -0.027557123 0.360234 -0.6842811
0.25021738 -0.16500525 -0.64136213 -0.62955374 0.17432427 0.6141023 -1.5495856 0.33005008
1.7064904 0.18291743 -0.367917 -1.3465112 -0.42233244 -0.15054098 -0.10939664 0.7361216
-0.23480877 0.22404365 0.08790688 0.42070463 0.4037143 1.3762374 -0.68985367 0.6361136
0.046116985 0.22234966 -0.40649545 -1.1029832 -0.5631087 0.5628748 0.005128698 0.5447932
0.0412559 -0.5436691 0.114480376 -0.15245174 -0.22856031 0.8190297 -0.26335448 0.43255723
1.1697953 0.55460507 0.040970955 -0.20241322 -0.77224094 0.45640334 0.22411622 1.2356225
0.48173517 -0.6612215 0.19587699 -0.60139817 0.31953624 -0.39053452 0.4334991 0.30259418
0.15249227 0.4590023 0.010314542 0.28274247 0.55716753 0.07614615 0.24909519 -1.0711695
-0.33644536 0.2657986 -1.0026556 -1.3107247 0.5840639 -0.067011446 0.06501853 0.30063635
-0.32845798 0.13146348 -0.99246037 0.23033719 -0.4594153 -0.03274691
00000000: 5081 a03e b9a3 6bbe e55b 263e e342 b23c
00000010: 765a 243e 6968 a13e ffc5 0bbd 4f41 35be
00000020: 630a 423e c8f4 ccbe a139 d93e 6fd1 e9be
00000030: 7685 e2bc 0861 47bf 7ddf 743e 80bf d7bd
00000040: 07b4 e23e 4bba ffbe 36ef b6be 23b1 e6be
00000050: 0ef5 04bf c5ac 5f3f 0811 09be 9919 4a3e
00000060: 67e9 a5bd 50a3 263f 36af 24bf 366f babe
00000070: a001 a8bd e805 c3be 33ec cfbe 11e2 b9be
00000080: cd9a 64be f4fc 933e 8858 463e 6a4c 183f
00000090: e59d 2a3e 9a86 e5be 0341 7d3f d7ec 343f
000000a0: 60b8 19bf e35b bfbe 836e c5be fb53 4ebf
000000b0: f432 033f da55 cdbe 0bb7 3a3e ddb8 ccbe
000000c0: 1843 0b3f 950c f83e 546a 8f3d 3a1c 82be
000000d0: 721c 123d 2aef 61bf 737f b7be e77e 49be
000000e0: 620d 1bbe 03b0 3e3f 9cf6 9dbe a6cb 14bf
000000f0: 3cb2 84bf 9453 393f 393e 27be 3cb1 673f
00000100: c14a b9bf c379 033f 86d5 e53d 6aae 1bbc
00000110: 6816 c43e 7abf e1bc 9770 b83e 0c2d 2fbf
00000120: 7e1c 803e 23f7 28be 4f30 24bf 6f2a 21bf
00000130: 1082 323e cf35 1d3f d258 c6bf 53fc a83e
00000140: 476e da3f b54e 3b3e 9e5f bcbe 7b5a acbf
00000150: f53b d8be 6a27 1abe 580b e0bd 7772 3c3f
00000160: b671 70be b36b 653e 8608 b43d 9966 d73e
00000170: a4b3 ce3e 8c28 b03f 409a 30bf 57d8 223f
00000180: 2ae5 3c3d a1af 633e 2c20 d0be 8e2e 8dbf
00000190: e427 10bf 9018 103f a30e a83b 9177 0b3f
000001a0: f2fb 283d e62d 0bbf b074 ea3d 4f1c 1cbe
000001b0: b70b 6abe eeab 513f 66d6 86be 2478 dd3e
000001c0: dabb 953f 99fa 0d3f 29d1 273d 6945 4fbe
000001d0: 95b1 45bf b3ad e93e b97e 653e e128 9e3f
000001e0: fea5 f63e d045 29bf fa93 483e 3bf5 19bf
000001f0: 419a a33e 24f4 c7be 98f3 dd3e a0ed 9a3e
00000200: ef26 1c3e 5902 eb3e 53fe 283c 9fc3 903e
00000210: 88a2 0e3f 83f2 9b3d cf12 7f3e 151c 89bf
00000220: 9142 acbe c116 883e 0557 80bf d4c5 a7bf
00000230: 3685 153f 4c3d 89bd 6f28 853d 02ed 993e
00000240: a52b a8be 5d9e 063e e211 7ebf 83dd 6b3e
00000250: 7b38 ebbe a021 06bd

fc.bias f4 [3]
0.25435215 -0.24092126 -0.19566405
00000000: 723a 823e 10b4 76be 285c 48be
