utilities/lstm_reg_multi.pth (torch, 49641 bytes, 5 tensors)

lstm.weight_ih_l0 f4 [200, 6]
000000 27 4e d6 bd e3 09 2e 3f ee bc ec be 0d 8c 0b 3d
       -0.10464125 0.67983836 -0.46237892 0.03406911
000010 9b f6 00 be e3 3d b2 be 72 3a a7 be 17 e9 db 3b
       -0.12594073 -0.3481284 -0.32661778 0.006711136
000020 01 44 cb be 27 19 36 3e d2 f5 fe bd 88 0a 8a bd
       -0.3970032 0.17783032 -0.1244923 -0.0674029
000030 f6 7f 0d 3f f5 1e 60 bd 60 17 3d 3e 06 6a f2 be
       0.5527338 -0.054717023 0.18465948 -0.47346514
000040 f0 0d 01 be 57 7d 30 3e b3 7b 53 be c0 46 23 bd
       -0.12602973 0.17235313 -0.20652656 -0.039862394
000050 b0 de 54 be 4d 57 06 be fb 73 f7 be 77 91 ad be
       -0.20788074 -0.1311924 -0.48330674 -0.33900043
000060 ae 5d c3 bd 9d c5 29 bd 6e d0 04 3f 68 d3 e5 bd
       -0.09539352 -0.041448224 0.5188054 -0.11221963
000070 b7 73 99 be 8b 45 c5 3c 2b 6f 90 3e 70 0a fe 3e
       -0.29971096 0.024081012 0.28209814 0.49617338
000080 01 24 81 3e cc 74 7b bf e9 6c 4f 3d 8b a9 16 3e
       0.2522278 -0.9822509 0.050640974 0.14713113
000090 1e e4 b0 3d b6 73 d4 3e d1 c9 db bb 8f cd 42 3e
       0.0863726 0.4149453 -0.006707408 0.19023727
0000a0 34 be 12 3f 3a c4 4f be b9 b6 8d be bc ed f4 bc
       0.57321477 -0.20289698 -0.2767847 -0.029898517
0000b0 c1 66 11 3f 8b 13 22 bf fc 2f 36 be 91 47 9e be
       0.56797415 -0.6331107 -0.17791742 -0.30913976
0000c0 6a 28 bf bd e5 85 12 be e9 42 9e be 1f 07 0d 3f
       -0.0933388 -0.14308889 -0.30910423 0.5508899
0000d0 31 a3 63 3e 74 69 55 3d ed c4 b3 be 79 86 1f be
       0.22230221 0.05210252 -0.3511118 -0.15578641
0000e0 50 bf 9a 3e 8c 8c 81 be bb fc 0e bf 75 b2 84 3e
       0.30224085 -0.2530254 -0.55854386 0.25917402
0000f0 d0 77 87 3e 9e e1 05 3f 86 a9 09 bf 77 a6 14 3f
       0.26458597 0.5229739 -0.537743 0.58066505
000100 c6 50 af be 97 f7 d1 bc f4 8a 0a 3f 75 15 f8 be
       -0.34241313 -0.025630755 0.54118276 -0.4845387
000110 1d 5f 04 3d 0f cd 0d bd 4c 75 79 3d ac 64 29 3f
       0.03231727 -0.034619387 0.06090288 0.6616924
000120 52 37 87 be 79 95 7b 3e 4e de 6a 3e 0f 33 0f be
       -0.26409394 0.24568738 0.22936365 -0.13984321
000130 00 92 c6 bd a9 ac e0 3d aa dc 7e 3f 27 38 2e 3e
       -0.09695816 0.10970432 0.99555457 0.17013608
000140 03 d6 1d 3f 72 24 a2 bb bc e0 74 3e 52 36 f8 bd
       0.6165468 -0.0049481923 0.23913854 -0.12119736
000150 9f 21 97 bd 4e f6 e8 3c ad fb 5e 3c 86 82 9a 3e
       -0.073794596 0.02843776 0.013609809 0.30177706
000160 f0 0f e3 bd 5b 7c 19 be 21 ca 07 bf 33 c4 61 3d
       -0.11087024 -0.14988844 -0.530428 0.05511875
000170 0c 0b da be f1 68 14 be 55 c4 8d bd 96 3a 41 bd
       -0.42586553 -0.14493157 -0.06922213 -0.047175013
000180 f4 16 8c 3d 3b 92 5e be e3 5c 91 3e 94 fd bc 3b
       0.068403155 -0.2173547 0.2839118 0.0057675336
000190 1c 37 2c 3f c5 37 17 3e d9 2a c9 3e 70 00 df 3d
       0.6727159 0.14767368 0.39290503 0.10888755
0001a0 68 b3 1d be 4c 27 5b bd ab 1d e3 3d e0 b3 9e be
       -0.1540047 -0.053504273 0.11089643 -0.3099661
0001b0 b7 d5 24 3f 36 7b 22 3e 77 f6 05 3e d0 a2 5b bd
       0.643886 0.15867314 0.130823 -0.053622067
0001c0 c9 7d 8e 3e 6c bf 10 be 1a 19 70 3d 54 2f 5f 3f
       0.2783034 -0.14135522 0.05861769 0.8718159
0001d0 c4 1a d6 3d 60 16 ad 3d fe 2f 4e 3e 82 5f d6 be
       0.10454324 0.08451533 0.20135495 -0.41869742
0001e0 74 52 5c be 7d 9e b2 bd c5 b2 dd bd 0a 15 95 bd
       -0.21515828 -0.087216355 -0.10825113 -0.072794035
0001f0 a8 8f 08 3d 34 2a 17 be 27 fb 2a 3f bb b5 cc be
       0.033340126 -0.14762193 0.6678948 -0.399824
000200 d3 b8 73 3e 23 01 4f be 02 41 25 3e 4a 9b 85 3d
       0.23800974 -0.20215277 0.1613808 0.0652376
000210 eb a7 12 3f b2 3c 19 3f 27 70 66 be b7 b4 8f be
       0.5728747 0.5985824 -0.2250372 -0.28067562
000220 66 43 5a 3e 52 43 04 be 2f 05 20 be f6 50 06 bf
       0.21314773 -0.12916306 -0.15626977 -0.52467287
000230 8e a6 be bd 0b 61 b3 3e 2b 19 9a be 35 4e d0 bd
       -0.093091115 0.35034975 -0.30097327 -0.10171167
000240 62 e3 b6 3e 5c f6 83 be 94 01 c6 3d 84 ee 01 bd
       0.35720354 -0.25773895 0.0966827 -0.031721607
000250 83 f7 30 be 8a b7 31 3d 5f f4 ff 3d af 70 83 3e
       -0.17281918 0.043387927 0.12497782 0.25671908
000260 9f 29 4a 3d bd ec e2 be 11 0e e5 3e b0 a1 13 be
       0.0493561 -0.44321242 0.44737294 -0.14417148
000270 86 b2 43 bf c2 81 39 3f cd 93 a2 be 16 f5 f1 bd
       -0.7644428 0.7246362 -0.31753388 -0.118143246
000280 56 af 90 3d 00 ac 94 be 83 ea 03 bd 0f 9b 55 3e
       0.07064693 -0.29037476 -0.03220607 0.20859931
000290 ce 2d bb be 6b b8 cd 3e 49 11 17 3e 9e 6d 2a bf
       -0.36558384 0.40179762 0.14752688 -0.6657351
0002a0 52 c8 73 3e b7 29 a0 be 63 59 2c 3e d0 47 2e be
       0.23806885 -0.31281826 0.16830973 -0.17019582
0002b0 bc f7 08 3e e1 a9 8d 3d dd fe 91 3e c3 cd 14 3f
       0.13375753 0.069171675 0.28514758 0.5812647
0002c0 b1 99 8b be ba f1 35 bf d3 9d 9c 3e 38 1f 3c be
       -0.27265695 -0.7107197 0.3058916 -0.18371284
0002d0 c8 f1 a5 3e 89 ef df bd ed 6a bc 3d c1 fe b3 be
       0.32411027 -0.109343596 0.09200082 -0.351553
0002e0 02 c2 91 be 13 d3 9e bd 6e b8 8d 3c 4a 79 bc 3c
       -0.2846833 -0.07755103 0.017299857 0.023007054
0002f0 00 2a bc be 22 8a 12 3f c3 4f e6 3d 18 de 1d 3e
       -0.36750793 0.57242024 0.11245682 0.15416753
000300 43 d7 b7 be f1 6a 00 3e 16 c9 86 be d8 f0 4c be
       -0.3590642 0.12540795 -0.2632529 -0.2001375
000310 63 20 80 3f 0f af d3 be ae 32 af bc 54 10 8d 3e
       1.0009884 -0.41344497 -0.02138647 0.2755152
000320 14 a7 23 bf 1e af b5 3d 8d 20 40 be 64 19 fe 3e
       -0.63926816 0.088712916 -0.18762417 0.49628747
000330 c4 f2 e6 3e 03 6c bc 3d 85 2d ad be 09 6b 38 be
       0.4510709 0.09200289 -0.3382379 -0.1800958
000340 38 9d 3d 3f 4a 8d 99 3e e8 d3 f1 be 44 5c 00 3f
       0.7406802 0.29990608 -0.47231984 0.50140786
000350 67 21 e8 be 2a 16 e0 be c9 67 8c be b3 4e ec be
       -0.45337984 -0.4376691 -0.27422932 -0.46153793
000360 33 2b 9e 3b 61 2c 50 3f 67 3b e3 be a1 43 58 bd
       0.004826927 0.81317717 -0.44381258 -0.05279887
000370 b1 d9 f2 bd 5b e4 83 3d e9 79 3e 3e 17 d9 7f bc
       -0.118579276 0.0644004 0.18601193 -0.015615723
000380 af ca 63 bd e5 32 73 bd 84 55 9e be b6 66 65 3f
       -0.055613216 -0.05937471 -0.30924618 0.8960985
000390 f7 0f f7 3e 4d e9 b6 bd 29 16 6b 3e 25 f2 82 3e
       0.48254368 -0.08931217 0.22957672 0.25575367
0003a0 10 bf 08 be b6 ff 96 3d cb df 78 3e ec d8 0a bf
       -0.13354135 0.07372992 0.2430412 -0.54237247
0003b0 3a a5 d0 be cf 22 f7 3e 3c 3d ad bd 4d 35 bf 3d
       -0.40751058 0.48268744 -0.08458945 0.09336338
0003c0 1a 76 90 be 2a 16 ce 3e a9 ff cc be f5 67 9f 3d
       -0.28215104 0.40251285 -0.40038803 0.077835
0003d0 ae e7 c4 be ae 1f 8e be fb bf db be 7f 61 e8 3c
       -0.38458008 -0.27758545 -0.42919907 0.028366802
0003e0 52 f0 76 bd f8 b3 37 3e ca c1 1e 3e 3f ff 6f 3e
       -0.06028778 0.17939746 0.15503612 0.23437212
0003f0 ee b2 46 3f a8 56 e1 bd 87 b5 d8 bd 5f 7d 43 bd
       0.77616775 -0.110028565 -0.105814986 -0.047726985

lstm.weight_hh_l0 f4 [200, 50]
000000 ed ce f2 be 12 ca 1a bd 4f 48 c3 be 4a a9 67 be
       -0.47423497 -0.037790366 -0.38141105 -0.22623172
000010 42 4d ee bd 01 96 4a 3e be 97 9a 3d b9 6d a5 3e
       -0.116358295 0.19783784 0.07548474 0.32310274
000020 9a 96 b5 3c c2 3a 7d 3f 19 66 02 be 24 72 3c bf
       0.022166539 0.9891778 -0.1273426 -0.73611665
000030 65 a0 7c 3c cd 51 a2 3e b8 95 ae 3b 2f a6 43 3d
       0.0154191 0.31703034 0.0053279065 0.047765907
000040 ca 8c bd 3e b8 69 f1 be d8 9e 16 3f d8 c0 24 bf
       0.37021476 -0.4715097 0.58836126 -0.64356756
000050 75 95 cf bd 9d 00 25 3f fc c8 2f bf 13 c0 41 bf
       -0.101359285 0.6445406 -0.6866605 -0.75683707
000060 3b 9a 19 bf dd 70 b3 bd 2f 2a c2 3d 1a cf 23 be
       -0.6000096 -0.08761761 0.09480702 -0.15996972
000070 22 86 64 3f e1 47 9d 3e 94 79 9e be 6a 60 86 3e
       0.8926717 0.30718902 -0.30952132 0.26245433
000080 39 18 6c 3f 27 df e1 3d d2 35 af be a3 20 8d be
       0.9222446 0.11028891 -0.3422075 -0.27563962
000090 ae 60 1a bf 01 fd 08 3f 7b 8d 75 3f 56 3e df be
       -0.6030377 0.53511053 0.9591901 -0.43602246
0000a0 a4 14 42 be fe af bf 3e 2a f6 2d bf b6 b1 88 39
       -0.18953186 0.3743896 -0.6795374 0.00026072346
0000b0 6f 0e 21 be b3 d8 3c 3f da 3d 6b bd 89 17 49 3e
       -0.15728162 0.73768157 -0.057432033 0.19637884
0000c0 0d d2 64 3f 63 cb 28 bf b7 03 89 3e 2f 42 26 3d
       0.8938301 -0.65935344 0.26760647 0.04059046
0000d0 66 18 de be 27 9d 94 3d f1 2c 90 3e c2 a0 8e bd
       -0.4337799 0.07256537 0.28159288 -0.06964256
0000e0 e4 b1 72 be 57 74 3e 3e 8f 20 ce bd a8 a8 3b 3f
       -0.23700672 0.18599068 -0.10064804 0.73304224
0000f0 ed ae 76 be 82 96 04 3f 56 19 83 3e f4 81 be 3d
       -0.24090166 0.51792157 0.25605267 0.0930213
000100 45 90 da 3e 78 54 55 3e c9 08 09 bd 95 a0 33 bd
       0.42688194 0.20833004 -0.033455644 -0.043854315
000110 15 0f cd 3e 8f 14 73 be 46 01 83 3e 67 25 b4 3e
       0.4005057 -0.23738311 0.2558691 0.35184786
000120 65 6d 56 be 60 ee ea 3d eb 31 7d be 47 d0 c7 be
       -0.20940168 0.11471248 -0.24726073 -0.3902609
000130 8c 72 83 be f8 d0 f5 3e ab ed cc 3c 92 ef 29 3d
       -0.2567333 0.48010993 0.025015673 0.041488238
000140 db 39 c8 be 9e f3 28 bf ab 2c dc 3e c9 aa b9 3e
       -0.3910664 -0.6599673 0.4300283 0.3626311
000150 a3 7a 1a bf ed 4a 75 bd e2 76 5e 3e 07 7f 59 3f
       -0.6034338 -0.059885908 0.21725038 0.84959453
000160 8a d5 d1 3c 90 79 47 bf 69 ba 45 be c5 7d f3 3d
       0.025614519 -0.77919865 -0.19309391 0.11889223
000170 dc 50 01 be f9 5f 85 3e 36 a8 34 3e f8 50 1d 3f
       -0.12628502 0.26049784 0.17642292 0.61451674
000180 2d ed 2e be a5 d0 05 be 5f d8 89 bd 97 0d 16 bf
       -0.17082663 -0.13067873 -0.06730723 -0.58614486
000190 82 d5 16 be b2 eb f7 3d 5a d9 a1 bc 61 28 a3 be
       -0.14729884 0.12105502 -0.019756962 -0.31866744
0001a0 b5 97 68 be cc d9 18 3f 3f 2e 00 3d 99 6b 1c be
       -0.22714122 0.5970733 0.031294104 -0.1527542
0001b0 2f f6 c0 3c ba c8 53 be 01 db 29 be 5a 20 a5 3e
       0.02355489 -0.2068204 -0.1658745 0.32251245
0001c0 f5 a1 30 3d 3a f5 c4 3e 1b 0c b6 be 03 45 9b be
       0.043123204 0.38468343 -0.3555611 -0.3032609
0001d0 57 0d c7 3e bc a3 58 3e 33 f2 3e 3e c0 89 fb 3d
       0.38877365 0.2115621 0.18647079 0.12282133
0001e0 d1 eb d0 be 22 6b 89 be 74 ca b5 be 64 6b 2c 3e
       -0.40804914 -0.26839548 -0.35506022 0.16837841
0001f0 76 73 72 3e 9c b5 f6 3d 38 ca 2e bf e8 8e 14 be
       0.23676857 0.12046358 -0.6827731 -0.1450764
000200 c8 9e ce be 63 74 26 3e 8e 04 15 3d 5b 8c 1b bd
       -0.40355515 0.16255336 0.036381297 -0.03797565
000210 e5 da bf be ce d5 55 be ff a5 da 3d a0 b6 47 3e
       -0.3747169 -0.20882341 0.106761925 0.1950326
000220 56 98 9b 3d a3 eb 0d be d1 91 45 bf c7 65 04 3f
       0.07597415 -0.1385942 -0.77175623 0.517178
000230 10 02 ed 3e af 5c 24 bf 3e 4c 32 bf b0 9d 91 3e
       0.46290636 -0.64203924 -0.69647586 0.2844062
000240 9b 12 36 be 34 2a 8b bf aa e6 b7 be eb 67 2e be
       -0.17780535 -1.0872254 -0.3591817 -0.17031829
000250 b8 8e ad be cb b0 c9 3c 77 eb 6c 3d f2 ce ad 3e
       -0.33897948 0.024620434 0.057841744 0.3394695
000260 09 2e 55 3e b1 f6 cd 3c e3 e4 1e be 38 2e 42 be
       0.20818342 0.025142046 -0.15517001 -0.18962944
000270 9a ce 8e be 4a 8f bb be 31 53 57 be 41 b9 a2 bd
       -0.27892 -0.36632758 -0.21027829 -0.07945491
000280 28 6a 64 3e 53 41 8b 3e bf f9 c3 be 86 9a b2 bd
       0.2230612 0.27198276 -0.3827648 -0.08720879
000290 79 a9 51 3e cb 2d f2 3e e8 b9 2b be 24 74 01 3e
       0.20474805 0.47300562 -0.16770136 0.1264196
0002a0 07 74 73 3e b0 c8 98 be 68 60 84 3e a7 ef be bd
       0.2377473 -0.29840612 0.25854802 -0.09323054
0002b0 f9 f5 d6 3e 44 fe 55 bc 84 fa 54 3e cb 4c 83 3e
       0.41984537 -0.01306111 0.20798689 0.25644526
0002c0 40 b0 33 3e 35 4c 11 3d a8 38 2d be 5d 09 3c be
       0.17547703 0.035473067 -0.16916144 -0.18362947
0002d0 5f 16 95 bd ec b8 09 3d ef 58 72 3d ea 75 d2 bb
       -0.072796576 0.03362362 0.059166845 -0.006422748
0002e0 74 ef bd 3e bd 9f f8 3d 36 31 11 3e 16 21 3e 3d
       0.3709675 0.12139843 0.14178929 0.046418272
0002f0 a2 db b8 be 6e b1 7c 3d 44 f1 27 be f4 3a bf 3d
       -0.36105067 0.061692648 -0.1640063 0.09337416
000300 c4 9e e3 3e e2 27 d8 bd 40 8e 92 3e 22 bf 04 be
       0.44457066 -0.10554482 0.28624153 -0.12963536
000310 23 86 bf bd a3 27 99 be e0 a3 dd 3d 50 48 e2 3e
       -0.093517564 -0.29913053 0.10822272 0.44195795
000320 14 6b bb 3e 6e bb a9 be d8 45 49 be 21 d9 c0 3d
       0.36605132 -0.3315081 -0.1965555 0.09416414
000330 4a 78 f4 bd a6 8e df be d1 47 20 bf 3f 5e 09 bd
       -0.11937006 -0.4366352 -0.62609583 -0.033537146
000340 35 9d b7 bd 5e e8 1a 3e a5 04 02 bf 60 08 f5 3e
       -0.08965532 0.15127704 -0.50788337 0.47857952
000350 3f 0d b8 be 89 b8 af be 18 13 08 be cd 48 6b 3f
       -0.35947606 -0.34320477 -0.13288534 0.9190796
000360 ca 08 39 3e cf e4 00 3f 3b 1b d5 3d d5 fc 0d be
       0.18069759 0.50349134 0.104055844 -0.13865979
000370 2e 56 7a bd 16 a1 c8 3e 2f a9 f0 3e 31 27 09 be
       -0.061117344 0.391854 0.47004077 -0.13393857
000380 e6 eb b3 3e 69 f5 dc 3e 14 07 a2 bd 38 76 03 bf
       0.35140914 0.43155983 -0.07911506 -0.5135226
000390 dd 18 0e 3f ae 59 d1 be ab 0d 85 bd b0 73 ff 3e
       0.5550669 -0.40888733 -0.064967476 0.4989295
0003a0 67 ca 64 3d 14 73 a0 be 9f 66 2a bf 9e 55 b4 3c
       0.05585709 -0.31337798 -0.6656284 0.022013482
0003b0 37 a8 fb bd 01 11 8c 3e ae 4e 58 bd 9e 17 a7 3e
       -0.12287944 0.27356723 -0.05280941 0.32635206
0003c0 32 ce 01 3d 6d 52 bd be 61 e7 16 3f 84 8f 96 3e
       0.031690784 -0.36976948 0.58946806 0.2940637
0003d0 4f d4 5d be 9d e8 30 3f b8 b9 7a be fa b3 1e 3e
       -0.2166302 0.6910494 -0.24484909 0.15498343
0003e0 c3 40 9b 3d 38 74 10 bf 04 c3 4a bd 02 9a 8b 3e
       0.07580712 -0.56427336 -0.049502388 0.27265936
0003f0 de b3 02 bd 2e 98 81 be 16 81 12 3f 03 1c b4 3c
       -0.031909816 -0.25311416 0.5722822 0.021986013

lstm.bias_ih_l0 f4 [200]
000000 7c e1 c4 3e 71 de 54 be 28 b9 0c 3c 59 b0 44 be
       0.3845328 -0.2078798 0.008589067 -0.19207896
000010 80 3a a8 bc b1 ce 52 be b5 dc 8b 3e aa f9 5f 3d
       -0.020535707 -0.20586659 0.27316824 0.054681458
000020 df d2 ad 3c c8 a5 4a 3d aa 52 07 be 9e 7c 7d 3d
       0.021218715 0.049474508 -0.13215128 0.061886422
000030 a9 48 9b 3e 73 c7 33 3e e2 6a e7 3d 14 d0 e6 bd
       0.30328873 0.17556553 0.11299683 -0.112701565
000040 94 61 d6 be c5 fd 1e be 2f 23 cd 3d f1 16 b6 bd
       -0.4187132 -0.15526493 0.10016476 -0.088910945
000050 5a b4 db 3d e7 81 e5 3d ea 1d 9e 3e d8 12 c8 3c
       0.10727759 0.112064175 0.30882198 0.024423048
000060 22 ae 08 be 3a e2 ff 3c 86 aa 50 3e 65 0e af bd
       -0.13347676 0.031235803 0.2037755 -0.085476674
000070 35 06 b1 bc 8a b8 e6 3e 6f c0 96 be 8e dc 7e be
       -0.021609405 0.45062667 -0.2944369 -0.24888822
000080 41 cd ba 3d 3c 77 34 be e8 28 17 3e a7 88 3b 3e
       0.0912118 -0.1762361 0.14761698 0.18313847
000090 9c f0 0c bd 20 d4 b5 3d e5 04 0a be e6 cc 5b 3e
       -0.03440915 0.0887835 -0.1347843 0.21464881
0000a0 73 06 c4 be 18 35 1b bf 60 0b 8f be 48 38 c6 be
       -0.3828617 -0.6062789 -0.27938366 -0.38714814
0000b0 f1 fa d6 3d 6f c1 37 be 43 72 1b 3e c5 ed 22 be
       0.10497082 -0.17944883 0.15180306 -0.15911014
0000c0 b3 b3 38 3d 1c 0b 4b 3e e5 5e d9 3d 8a ab 16 3e
       0.04509325 0.19828457 0.10613803 0.14713874
0000d0 fb 42 6d 3d 52 1d 82 3e 65 06 9d bd 72 7a 1f 3c
       0.057925206 0.25412995 -0.07667235 0.009733783
0000e0 62 01 a1 bc 8a cd f2 be b2 bb 3f be 12 7f 1b 3e
       -0.01965398 -0.4742244 -0.18723944 0.15185192
0000f0 b0 da 7d 3e b2 1c 85 3e 53 51 0e be b6 e8 23 3e
       0.24790454 0.25998455 -0.1389821 0.16006741
000100 ff 6e 2f 3e c0 16 16 3e 01 30 8a bc 19 ce e1 3e
       0.17132185 0.14657116 -0.016868593 0.44102553
000110 0f cc 64 bc 6a 04 e5 3c 33 72 a5 3e 9c e4 7a bc
       -0.013964667 0.027956206 0.3231369 -0.015313294
000120 c4 23 9a be 4d 99 7d 3e 25 56 21 be bd c6 08 3f
       -0.30105412 0.24765511 -0.15755518 0.5342825
000130 26 92 f5 be 86 df fa 3d 50 25 d2 3d 52 25 10 3e
       -0.47963065 0.12249665 0.10261023 0.14076737
000140 bd fa d5 3e 54 3a 43 bd 16 73 2f bd 3d ab 56 3e
       0.4179286 -0.047663048 -0.042834364 0.2096376
000150 1b 6b 69 3d 27 ca 6d bc 09 d9 91 3e a1 31 96 3e
       0.05698691 -0.014513529 0.28485897 0.2933474
000160 42 b6 67 bc ea de 01 be 6b 03 f5 3d 7f f7 24 3f
       -0.014142575 -0.12682691 0.119635426 0.6444015
000170 bf f8 bb 3e a4 6a 67 3e e9 e9 04 be bd 58 fc 3d
       0.36713216 0.22599274 -0.12979855 0.12321613
000180 69 f3 ba 3e d9 da bb 3e bf fb d1 3d 92 67 8f 3e
       0.36513832 0.36690405 0.10253095 0.28008705
000190 00 d8 86 bd 15 4a 76 3c 0c bf 43 3c cc 14 99 be
       -0.065841675 0.015032311 0.011947405 -0.2989868
0001a0 69 36 fe bd e0 55 33 be ee ec 9b 3d 84 02 ff 3c
       -0.12412722 -0.17513227 0.0761355 0.03112913
0001b0 f1 91 7d 3e 56 87 e6 3d c6 bb 3f 3d 66 dc a3 bc
       0.24762703 0.11256282 0.046809934 -0.020002555
0001c0 e3 71 f1 3d f3 5b a7 3c 57 25 8c be fa b7 40 3d
       0.117893 0.020429587 -0.27372238 0.047050454
0001d0 9d 4f a0 3e 1a d0 da bc 40 9d 23 3e 41 ce bc 3d
       0.3131074 -0.026710559 0.15977955 0.09219027
0001e0 d4 e5 ec 3c 20 ed 50 3d 24 45 2e 3e 01 57 28 be
       0.028918184 0.05100739 0.17018563 -0.1643944
0001f0 ec 70 92 3e 59 1a bb 3b 0a 98 8e 3e ec 47 5a 3d
       0.28601778 0.005709928 0.27850372 0.053291246
000200 b4 4d 8f 3d f2 53 5c be f1 db 90 3d f3 98 71 3e
       0.069972426 -0.21516398 0.070732005 0.23593502
000210 16 e9 21 be 6e f9 4c 3e 94 7c e2 bd 53 92 9b 3d
       -0.15811571 0.20017025 -0.11058918 0.075962685
000220 17 ee aa bd 36 db 26 3e 98 b9 b7 3d 91 28 cc bb
       -0.08346193 0.1629456 0.08970946 -0.006230422
000230 bb fe 19 3e bf f0 af 3d 5d 12 87 bd 08 f4 c9 3d
       0.15038578 0.085908405 -0.065952994 0.098609984
000240 3b 1f 02 3d 70 17 15 bd b7 1a 14 3c 4b da 3c 3e
       0.031768065 -0.036399305 0.009039572 0.18442647
000250 ef 2d 01 be de fa 86 be 9a 5b 9e 3e c3 81 c3 bd
       -0.12615179 -0.2636327 0.3092926 -0.095462345
000260 3a 96 02 3c 30 e6 5e bd 93 0e 61 3c a9 45 a0 be
       0.007970387 -0.054418743 0.013736385 -0.31303146
000270 96 4d 97 3d 61 c0 71 be 16 02 3f be e8 79 5d be
       0.07387845 -0.23608543 -0.1865314 -0.21628535
000280 6c 0c 38 be 68 0a 9c 3e 0c 1d a6 3e 9c 14 8c 3e
       -0.17973489 0.3047669 0.32444036 0.27359474
000290 47 e0 9f bd 20 ec 17 3d 82 0a 1c bd ef b0 65 3b
       -0.078064494 0.03709042 -0.03809596 0.0035048088
0002a0 9b f9 55 be 6f e5 a0 be b2 2f 9a 3d 47 0f dc bd
       -0.20895998 -0.31425044 0.075286284 -0.107451014
0002b0 53 18 1b 3e 4b 23 00 bd 98 50 0c 3e ab 52 c1 3c
       0.15145998 -0.031283658 0.13702619 0.02359899
0002c0 2b 33 f1 3b 7f 99 a8 3d 54 9f 07 3e 25 1e 79 3f
       0.007360836 0.08232402 0.13244373 0.9731162
0002d0 70 05 05 3c c7 ea 01 be b3 c2 81 3e 4e a8 de bc
       0.008118972 -0.12687217 0.25343856 -0.027179863
0002e0 31 fa 73 be c0 1b 37 3e 9c 0e 8b 3e 56 4a 9e 3d
       -0.23825909 0.1788168 0.27159584 0.07729022
0002f0 36 ea 08 3e b6 55 27 3e b1 43 05 be 8f 93 61 3e
       0.13370594 0.1634129 -0.13014103 0.22028945
000300 60 4c 14 3d d1 b9 33 bd e2 15 94 bd d5 7f c9 3d
       0.03620565 -0.04387838 -0.07230736 0.09838835
000310 03 71 cf bc a0 6a f3 bd 09 30 75 3e 9d e3 6c 3b
       -0.025322443 -0.118855715 0.23944105 0.003614641

lstm.bias_hh_l0 f4 [200]
000000 a6 c0 a9 3e 0b 6c bb be 4a 18 37 bc 16 e0 ad bd
       0.33154792 -0.36605868 -0.011175225 -0.084900066
000010 4c 41 ca bd 91 f5 da bd de 16 3b 3e c1 87 9d bd
       -0.09875736 -0.10691369 0.18270442 -0.07691909
000020 ab 5c c4 3c 63 35 5d 3e 8e 28 7d bc c1 f3 14 3e
       0.023969969 0.21602397 -0.0154515635 0.1454611
000030 53 82 8e 3e bd ec 6f bd 79 bd 9d 3c d6 dd a4 be
       0.27833804 -0.05857538 0.019255387 -0.32200497
000040 4a f9 b0 be 1f d6 2a bd 37 b1 b4 3e 85 cc 12 be
       -0.34565192 -0.041708108 0.35291454 -0.1433583
000050 be 6a 8a bd 17 c4 0d be 24 f1 4f 3e 38 f6 8d bd
       -0.06758641 -0.13844334 0.20306832 -0.06931728
000060 16 52 16 be db 41 99 bd 38 d8 6a 3d 56 b1 b1 3c
       -0.14679751 -0.07483264 0.05733511 0.021691006
000070 d8 d1 1b be f4 8a 80 3e ef 33 a8 be 97 5a 6d bd
       -0.15216768 0.25106013 -0.32852122 -0.05794772
000080 2c dc 2a 3c b6 e7 8c be 6d f6 ca bc 37 f6 8c 3e
       0.01042847 -0.2752053 -0.024775708 0.27531597
000090 7c 43 00 3e 0a e4 8e 3e 82 f3 86 bc 0a be 82 3e
       0.12525743 0.27908355 -0.016473535 0.25535613
0000a0 65 73 97 be 74 dd 1d bf db 56 6b be 2c e0 c3 be
       -0.29580227 -0.61666036 -0.22982351 -0.38256967
0000b0 49 db bd bd af e2 4f 3d 9f a8 1b 3e 61 84 b6 3d
       -0.09270341 0.05075329 0.15201043 0.08911968
0000c0 01 fd 11 3e 84 89 4a 3e 45 30 e8 bd fe 48 23 3e
       0.1425667 0.1977902 -0.11337332 0.15945813
0000d0 4b c8 b0 bc d6 86 8d 3e e3 38 95 3d ca ac 08 be
       -0.021579882 0.27641934 0.07286241 -0.13347164
0000e0 4a 9a 0a be 7c ab cc be db ec f4 3c 4c 32 20 3e
       -0.13535419 -0.39974582 0.029898098 0.15644187
0000f0 6b 5e ab 3e b8 e1 67 3d 1e de e9 bd d4 f6 03 3d
       0.33470473 0.056611747 -0.114193186 0.032217816
000100 8f 03 72 3e ad de 79 3e f7 37 8d bc 4b 9b a6 3e
       0.2363417 0.2440135 -0.0172386 0.32540354
000110 cf c3 9e 3d 0d b2 22 3e ec 0c 1d 3e 22 d9 08 3e
       0.07752191 0.15888233 0.1533696 0.1336408
000120 88 7b a1 be bc 11 28 3e 4d 14 86 3c 00 55 97 3e
       -0.3153956 0.16413015 0.016367102 0.29557037
000130 48 29 e9 be 06 e3 ac 3d 7c ae f3 bd ac ed 60 bd
       -0.45539308 0.08441739 -0.11898515 -0.05491416
000140 e2 b9 77 3e 07 50 93 bd 9f fd bd 3d c7 67 c5 3c
       0.24192002 -0.071929984 0.0927689 0.024097336
000150 86 57 26 3e 74 98 cc bb 8d 35 d8 3e 3d 58 c5 3e
       0.16244325 -0.0062437598 0.42228356 0.38543883
000160 88 db 2f 3e 15 ce 0b 3d b1 e6 d2 3d 4f 0c 33 3f
       0.17173588 0.034132082 0.10297907 0.69940656
000170 ef 86 c4 3e 59 23 ca 3d 4b ed a3 bc 69 f1 2a 3e
       0.38384196 0.09870023 -0.020010611 0.16693653
000180 99 58 9a 3e 73 f0 a8 3e 54 3f 97 bc ae a1 98 3e
       0.3014572 0.32995948 -0.018462814 0.29810852
000190 6b d5 80 bd 11 69 87 bd de cf 92 3d ec 7d 9f be
       -0.06290706 -0.06611837 0.07168554 -0.31150758
0001a0 8b 2b a7 bd 80 c7 d9 bd 4f ee 7c 3d a9 d4 93 3d
       -0.08162602 -0.10633755 0.061750706 0.07218296
0001b0 1c 93 05 3e 19 e2 eb 3c 69 26 e9 bd a5 1e c2 3d
       0.13044399 0.028794335 -0.11384279 0.09478501
0001c0 78 28 07 3b 08 0c 20 3e 2c 12 c6 bd 69 d1 10 bd
       0.0020623486 0.1562959 -0.09671435 -0.03535596
0001d0 86 94 f1 3d ed ee 03 bd 32 d5 6b 3e e4 67 cf bc
       0.11795907 -0.03221028 0.23030546 -0.025318094
0001e0 3b 4b 5b be e9 b7 9d 3c 7d 1f 21 bd 62 ab bf be
       -0.21415417 0.019252734 -0.03933667 -0.37435442
0001f0 eb 4c 2c 3e d1 a3 8f bd f9 f0 20 3e eb 85 1d be
       0.16826217 -0.070136674 0.15716924 -0.15383117
000200 25 09 2c 3d c7 a9 98 3c e8 ea de 3d e6 36 ce 3d
       0.04200091 0.018635644 0.108846486 0.10069065
000210 4a fd 04 be 04 41 34 3e a3 54 8a be d9 d2 b7 bd
       -0.12987247 0.17602926 -0.27017698 -0.08975763
000220 f9 7b 46 bd 01 7c 6f bd 0c f3 e1 3d 38 a7 c9 bd
       -0.048458073 -0.05846787 0.11032686 -0.098463476
000230 4f c4 14 bd a7 f4 8d 3d 56 85 a4 bd ec d9 da 3c
       -0.036320027 0.06931429 -0.08033244 0.026715241
000240 a3 c7 1f 3e 8f 4d 8f be 12 b8 e6 3d 79 ad 65 3e
       0.15603499 -0.2798886 0.112655774 0.22429456
000250 74 96 08 bd f7 11 36 be 4b 58 30 3e 9f 27 de bd
       -0.03334661 -0.1778029 0.17221181 -0.10847401
000260 ce 30 4f bd d4 8e d9 bd ef 2b 55 be 85 c7 80 be
       -0.050583653 -0.106229454 -0.2081754 -0.2515222
000270 ea 60 c3 3d 3c a0 85 be 28 df 09 3b 14 d9 73 be
       0.09539969 -0.26098812 0.0021037553 -0.23813277
000280 5e 4e b0 bd 62 99 4b 3e a5 b8 05 3e a7 5b 49 3e
       -0.08608697 0.1988273 0.13058718 0.19663869
000290 a1 d9 5e 3c 3e 30 8b 3d 5c 2f 1a be 4e b7 9c 3c
       0.013601691 0.06796311 -0.15057129 0.019130375
0002a0 4f 0c d3 bd f4 af c6 bd ef 4a 6e bd 15 d2 7f bb
       -0.10305082 -0.09701529 -0.05817693 -0.003903513
0002b0 db 2f 98 3e 27 c8 03 be fd 73 4b 3e aa 04 22 bb
       0.2972401 -0.12869321 0.19868465 -0.0024722018
0002c0 72 58 1b 3e 0b 2f a6 bd c0 97 d4 bd 2b f3 6d 3f
       0.15170458 -0.081144415 -0.103805065 0.9294917
0002d0 fc 77 17 3c 06 67 d8 bc 6f de 5f 3e 9b a7 d5 3d
       0.009244915 -0.026416313 0.21862195 0.10432359
0002e0 eb 6f 37 be 41 3c bc 3e d7 8a 82 3d 93 0a 34 3d
       -0.17913787 0.3676472 0.06374138 0.043955397
0002f0 e3 0d 9f 3e 46 21 35 3e 5d d7 89 3d ca a3 a3 3e
       0.31065282 0.17688474 0.067305304 0.319609
000300 72 59 a8 bc a7 9f 93 be 82 9f c1 3d 29 35 cd 3c
       -0.020550463 -0.28832743 0.09454252 0.025049763
000310 d5 fc a4 3c 42 d7 71 be 81 9a d8 3e 4f cd e7 bd
       0.020140091 -0.2361727 0.42305377 -0.113184564

fc.weight f4 [1, 50]
000000 89 3c 00 bf 17 5e 6d 3e c9 79 3c bd 12 5a 3c 3e
       -0.5009237 0.23180424 -0.04601458 0.18393734
000010 71 2f 8d 3e ad e3 89 3e 14 3b b7 be b4 e4 ce be
       0.27575257 0.26931515 -0.3578726 -0.40408862
000020 a1 d1 7b be 6c 5b 1d be 7a 3f 7b 3e 1d 04 a1 3d
       -0.24591686 -0.15366906 0.24535933 0.07862113
000030 6d ad 96 3e 11 f6 86 3e 9f ed 77 3e e1 18 bf bd
       0.29429188 0.2635961 0.24211739 -0.09330917
000040 47 1a 95 be d7 18 1d be 10 b6 89 3e f0 63 a4 3e
       -0.2912161 -0.15341507 0.26896715 0.32107496
000050 8e 0d 71 bd b0 78 92 be 19 23 fa be 3a c2 3a 3e
       -0.058850817 -0.28607702 -0.48854902 0.18238154
000060 54 8b 00 be 8b 8e 62 be 77 7a d6 be 0d 58 a6 3e
       -0.1255315 -0.22124688 -0.41890308 0.32489052
000070 06 e8 5d bd 92 e0 ec 3e af d3 90 3d 4e ef a8 be
       -0.054176353 0.46265084 0.070716254 -0.32995075
000080 d9 27 69 3e 10 4c 68 3e ef 9f 85 3e c8 86 cd be
       0.22769107 0.22685266 0.26098582 -0.40141892
000090 a3 60 19 be 5e 96 27 3e f3 4a d8 bd 74 a8 b6 be
       -0.1497827 0.16365954 -0.105611704 -0.35675395
0000a0 8b 3a 98 3e 2d ec 22 3d ca f6 17 3e 34 6d 97 be
       0.29732165 0.039776016 0.14840236 -0.29575503
0000b0 90 21 99 3e 4b 02 c0 3c 22 f4 04 be 57 bc 3a be
       0.2990842 0.023438593 -0.12983754 -0.18235908
0000c0 af 1a ef bd 5c d1 96 3e
       -0.11675011 0.29456604
